models/asl_model_quantized.tflite (tflite, 26720 bytes, 3 tensors)

tfl.pseudo_qconst1 i1 [24, 64]
000000 bc c0 e6 06 0e da 06 04 06 05 06 ee 05 0f fa fb
       -68 -64 -26 6 14 -38 6 4 6 5 6 -18 5 15 -6 -5
000010 07 bf 05 b2 01 05 0a 07 cd 09 d0 09 fd c2 09 c7
       7 -65 5 -78 1 5 10 7 -51 9 -48 9 -3 -62 9 -57
000020 e1 01 15 07 ee fe 04 f8 81 05 0f fa 01 92 07 dd
       -31 1 21 7 -18 -2 4 -8 -127 5 15 -6 1 -110 7 -35
000030 07 03 fd 08 c6 07 86 06 06 f8 da 06 bc 07 02 08
       7 3 -3 8 -58 7 -122 6 6 -8 -38 6 -68 7 2 8
000040 0a 06 07 9d 0b fb a3 08 bf d0 d7 af d3 05 ff e0
       10 6 7 -99 11 -5 -93 8 -65 -48 -41 -81 -45 5 -1 -32
000050 ce 02 07 0a 07 c5 94 9d f6 e7 fb 9b 00 be c8 b4
       -50 2 7 10 7 -59 -108 -99 -10 -25 -5 -101 0 -66 -56 -76
000060 ee b7 0a a0 03 ac 06 db 06 b8 ab 02 a3 fe ca 05
       -18 -73 10 -96 3 -84 6 -37 6 -72 -85 2 -93 -2 -54 5
000070 d2 11 9e ce e8 b5 04 c7 96 c3 0d c0 81 a8 06 c4
       -46 17 -98 -50 -24 -75 4 -57 -106 -61 13 -64 -127 -88 6 -60
000080 c1 a8 05 e8 10 ca 0c 0c c8 bd 0f a4 b3 09 06 fe
       -63 -88 5 -24 16 -54 12 12 -56 -67 15 -92 -77 9 6 -2
000090 10 8d d9 f0 0a 81 f0 0a 84 b9 12 20 0d 0e f5 fa
       16 -115 -39 -16 10 -127 -16 10 -124 -71 18 32 13 14 -11 -6
0000a0 91 9e 09 fa c0 9d 09 e4 d1 b5 fc 09 bd d9 f0 0d
       -111 -98 9 -6 -64 -99 9 -28 -47 -75 -4 9 -67 -39 -16 13
0000b0 cb 13 a9 f6 e1 c4 98 ee 04 07 10 0a fa b1 05 0c
       -53 19 -87 -10 -31 -60 -104 -18 4 7 16 10 -6 -79 5 12
0000c0 fe e0 fb bc eb cf 08 02 05 fc 0a 05 00 05 fa 15
       -2 -32 -5 -68 -21 -49 8 2 5 -4 10 5 0 5 -6 21
0000d0 0c 00 ca e7 08 b5 e3 81 01 e5 06 b3 07 09 fa dc
       12 0 -54 -25 8 -75 -29 -127 1 -27 6 -77 7 9 -6 -36
0000e0 ba ad fd af fd 09 06 08 e4 0a e4 07 0b 05 df 05
       -70 -83 -3 -81 -3 9 6 8 -28 10 -28 7 11 5 -33 5
0000f0 05 0a 13 00 ed 04 c7 ec 07 1e 0a 00 cd ef 02 02
       5 10 19 0 -19 4 -57 -20 7 30 10 0 -51 -17 2 2

tfl.pseudo_qconst3 i1 [64, 128]
000000 fd 0b 06 ff fb f4 ff 1e 03 0c fb 03 fe 01 12 fc
       -3 11 6 -1 -5 -12 -1 30 3 12 -5 3 -2 1 18 -4
000010 17 fc 15 2c 05 f2 04 00 ff 04 fe f6 f5 fd 04 14
       23 -4 21 44 5 -14 4 0 -1 4 -2 -10 -11 -3 4 20
000020 20 db 1f fc fd fc ee 06 02 d8 81 f6 08 05 c0 f6
       32 -37 31 -4 -3 -4 -18 6 2 -40 -127 -10 8 5 -64 -10
000030 1a ff eb 07 18 18 05 fb 01 fa b6 04 03 bb 01 ea
       26 -1 -21 7 24 24 5 -5 1 -6 -74 4 3 -69 1 -22
000040 fb fe dc fb 02 c2 f0 fd 1a fd 04 18 fe fa 00 01
       -5 -2 -36 -5 2 -62 -16 -3 26 -3 4 24 -2 -6 0 1
000050 1a 01 04 03 06 15 fd ef 09 ff 0a 01 0a ff 0b fd
       26 1 4 3 6 21 -3 -17 9 -1 10 1 10 -1 11 -3
000060 06 03 03 e9 18 1a 03 06 e2 0f df fa ff fb 14 0c
       6 3 3 -23 24 26 3 6 -30 15 -33 -6 -1 -5 20 12
000070 03 23 e7 fe fa ff 06 00 ef ff 1e fa ed 0b fe fb
       3 35 -25 -2 -6 -1 6 0 -17 -1 30 -6 -19 11 -2 -5
000080 fd d8 07 c5 07 09 90 f6 ff be 01 24 f4 ff ea fe
       -3 -40 7 -59 7 9 -112 -10 -1 -66 1 36 -12 -1 -22 -2
000090 22 ed 21 ec e9 df fc f4 05 01 fe 08 f3 b1 fc f6
       34 -19 33 -20 -23 -33 -4 -12 5 1 -2 8 -13 -79 -4 -10
0000a0 49 ed 23 01 f6 fe ee 0a fa f1 e6 fe 10 01 fb 04
       73 -19 35 1 -10 -2 -18 10 -6 -15 -26 -2 16 1 -5 4
0000b0 fe 44 ff 08 35 e0 01 08 0d 36 f9 fc 2c f7 fb 2d
       -2 68 -1 8 53 -32 1 8 13 54 -7 -4 44 -9 -5 45
0000c0 e8 01 81 09 fb ff d5 f8 07 f6 ee fd 10 e1 f7 05
       -24 1 -127 9 -5 -1 -43 -8 7 -10 -18 -3 16 -31 -9 5
0000d0 06 20 e2 13 00 11 05 01 ec fa 11 41 aa 01 17 1e
       6 32 -30 19 0 17 5 1 -20 -6 17 65 -86 1 23 30
0000e0 ee 0b 08 11 4c cd 5b fd fa 0d e3 07 08 03 2d 06
       -18 11 8 17 76 -51 91 -3 -6 13 -29 7 8 3 45 6
0000f0 f9 e9 05 05 07 43 fb 0b e2 ff de 04 1b f7 f5 00
       -7 -23 5 5 7 67 -5 11 -30 -1 -34 4 27 -9 -11 0

tfl.pseudo_qconst5 i1 [128, 63]
000000 97 a0 02 ec cb 45 58 a8 a8 af 08 81 d9 fa 0e 5c
       -105 -96 2 -20 -53 69 88 -88 -88 -81 8 -127 -39 -6 14 92
000010 41 2d 3e ce 76 43 aa de d0 e4 47 13 0e c6 bc 0f
       65 45 62 -50 118 67 -86 -34 -48 -28 71 19 14 -58 -68 15
000020 39 59 3a 6a e9 7f 71 eb 0a d6 d9 8d 12 f3 f5 fd
       57 89 58 106 -23 127 113 -21 10 -42 -39 -115 18 -13 -11 -3
000030 dd 0d fe b3 48 75 0c 87 ee d4 be f7 83 93 99 09
       -35 13 -2 -77 72 117 12 -121 -18 -44 -66 -9 -125 -109 -103 9
000040 f2 7f f3 f5 07 e8 ec 02 e7 1d 0b 09 46 02 f3 0c
       -14 127 -13 -11 7 -24 -20 2 -25 29 11 9 70 2 -13 12
000050 e8 17 09 fa 3d 1a 2a 67 12 43 e7 05 e5 ea 00 0f
       -24 23 9 -6 61 26 42 103 18 67 -25 5 -27 -22 0 15
000060 e0 d1 07 e0 b2 03 fb fc f6 f0 15 0e 0a f1 da 05
       -32 -47 7 -32 -78 3 -5 -4 -10 -16 21 14 10 -15 -38 5
000070 de 98 01 fa fb fd 13 30 f4 11 13 fb 02 ef 28 94
       -34 -104 1 -6 -5 -3 19 48 -12 17 19 -5 2 -17 40 -108
000080 45 ea 28 d5 d0 a1 1e ac 12 fb ac b4 47 13 8e 39
       69 -22 40 -43 -48 -95 30 -84 18 -5 -84 -76 71 19 -114 57
000090 53 01 c1 59 8b 0a 52 6f 24 65 f4 7f c1 8f 43 ac
       83 1 -63 89 -117 10 82 111 36 101 -12 127 -63 -113 67 -84
0000a0 c1 65 27 37 e3 39 82 60 f8 33 c2 40 f3 a5 81 8b
       -63 101 39 55 -29 57 -126 96 -8 51 -62 64 -13 -91 -127 -117
0000b0 de 41 c2 f4 b1 05 f8 94 19 cc a0 fc fd 54 f1 b1
       -34 65 -62 -12 -79 5 -8 -108 25 -52 -96 -4 -3 84 -15 -79
0000c0 03 f6 a9 04 fe cc 32 3c e0 7f 2b e6 f3 8a eb e1
       3 -10 -87 4 -2 -52 50 60 -32 127 43 -26 -13 -118 -21 -31
0000d0 e0 03 ce f5 e6 ae ea d7 1d 9f 12 e7 1a d8 c0 2b
       -32 3 -50 -11 -26 -82 -22 -41 29 -97 18 -25 26 -40 -64 43
0000e0 f5 ad 52 03 1f 9e 2e ef 31 2d 12 1f 30 0e 16 74
       -11 -83 82 3 31 -98 46 -17 49 45 18 31 48 14 22 116
0000f0 2a e8 36 1c 3c 27 e6 12 f8 ff fe 27 8f d3 28 cd
       42 -24 54 28 60 39 -26 18 -8 -1 -2 39 -113 -45 40 -51
