models/asl_model.tflite (tflite, 74308 bytes, 6 tensors)

arith.constant f4 [24, 64]
000000 89 78 21 c0 e0 5d 18 c0 d6 62 77 bf 82 04 70 3e
       -2.522982 -2.3807297 -0.96635187 0.2343922
000010 db bf 01 3f d6 63 b5 bf 22 df 50 3e 9a fa 1f 3e
       0.50683373 -1.4171093 0.20397618 0.1562294
000020 b9 02 69 3e f3 f4 48 3e e8 1e 71 3e 46 2f 2b bf
       0.22754945 0.1962469 0.23546946 -0.6686901
000030 fb d3 3b 3e 9f 4a 0c 3f fd e1 75 be b0 1f 3d be
       0.18342583 0.5480136 -0.24011989 -0.18469119
000040 0d f5 82 3e d6 ac 1a c0 25 3f 49 3e e2 bc 39 c0
       0.25577584 -2.416799 0.19652994 -2.9021535
000050 51 5c 4b 3d b7 88 3a 3e af 90 be 3e 49 99 7a 3e
       0.049648587 0.18216215 0.3721976 0.24472536
000060 f9 ed ef bf 75 96 a8 3e d0 09 e5 bf f3 d4 a6 3e
       -1.8744498 0.3292729 -1.789362 0.32584342
000070 c4 8c be bd d0 a3 12 c0 e4 c3 a9 3e 12 ee 06 c0
       -0.09304193 -2.2912483 0.33157265 -2.1082807
000080 ab 19 92 bf 0f b0 25 3d 80 c7 4a 3f 55 08 88 3e
       -1.1414083 0.040451106 0.7921066 0.26568857
000090 03 5f 2d bf 2b de 96 bd d9 44 2a 3e 06 e6 8f be
       -0.677231 -0.07366594 0.16627826 -0.2810518
0000a0 d9 b0 96 c0 78 dc 40 3e 45 d2 0b 3f 3b e5 54 be
       -4.709088 0.18834102 0.5461772 -0.2079057
0000b0 b1 d8 54 3d 7c eb 82 c0 11 ec 80 3e fd 00 a7 bf
       0.051964466 -4.0912457 0.25180104 -1.3047177
0000c0 10 61 80 3e c4 3f 00 3e 83 97 fd bd 19 7d 8f 3e
       0.25074053 0.12524325 -0.12382414 0.2802513
0000d0 4f 00 09 c0 c9 9a 85 3e a7 84 90 c0 84 9c 59 3e
       -2.1406438 0.26094654 -4.516193 0.21251112
0000e0 ff bc 68 3e be 57 a1 be 61 fd b1 bf 42 cf 6e 3e
       0.22728346 -0.31512254 -1.390545 0.2332125
0000f0 ad fc 21 c0 39 9d 81 3e 5b 1a a6 3d 58 77 9a 3e
       -2.531047 0.25315264 0.08110496 0.30169177
000100 2f df d7 3e bd 07 66 3e 9e e1 87 3e 91 6e 80 c0
       0.42162463 0.2246389 0.2653932 -4.013497
000110 24 1f dd 3e 62 a7 3f be 46 a2 70 c0 6d 98 ac 3e
       0.4318782 -0.18716195 -3.7599044 0.33710042
000120 ca 41 27 c0 5a 78 f5 bf 9e c7 d4 bf 51 e3 51 c0
       -2.6133904 -1.9177353 -1.6623418 -3.2794993
000130 03 3b ea bf a5 40 61 3e a4 cf 0f bd a4 d7 a7 bf
       -1.8299259 0.21997316 -0.03511013 -1.3112683
000140 0a 1a 02 c0 51 7e ad 3d fa 9d 88 3e 1b 01 c5 3e
       -2.0328393 0.084713586 0.26683027 0.38477406
000150 a5 f7 95 3e 5a 59 18 c0 89 07 8b c0 18 17 80 c0
       0.292905 -2.3804536 -4.34467 -4.002819
000160 9c 17 cb be 6f dc 81 bf 97 c2 4e be 26 e0 82 c0
       -0.3966645 -1.0145396 -0.20191418 -4.089862
000170 3b 53 85 bc b4 3d 29 c0 12 e7 11 c0 07 43 45 c0
       -0.016275039 -2.644391 -2.2797284 -3.082216
000180 25 5e 3b bf 65 be 3b c0 64 84 cd 3e b0 b2 78 c0
       -0.7319053 -2.9334958 0.4014007 -3.8859062
000190 c5 31 f9 3d c0 43 59 c0 e1 db 7e 3e b0 72 c1 bf
       0.12167696 -3.3947601 0.24888565 -1.5113125
0001a0 b0 c6 6e 3e cf 30 39 c0 d4 0d 5c c0 28 19 ab 3d
       0.23317981 -2.893604 -3.438344 0.083544075
0001b0 46 52 6f c0 d3 a1 89 bd ad 6b 0c c0 7f 90 60 3e
       -3.7393966 -0.06720319 -2.194072 0.21930121
0001c0 00 2a eb bf 48 a2 33 3f 7b 7f 7c c0 13 fa 01 c0
       -1.8372192 0.70169497 -3.9452808 -2.0308883
0001d0 e8 48 7a bf c0 4f 41 c0 6d 84 23 3e 76 51 14 c0
       -0.97767496 -3.0204926 0.15968485 -2.317472
0001e0 db 42 89 c0 98 ea 1c c0 e3 b6 01 3f 02 f4 25 c0
       -4.289411 -2.4518185 0.5066969 -2.593018
0001f0 01 08 a4 c0 b2 40 63 c0 89 2c 86 3e 4f 6b 1b c0
       -5.125977 -3.5508237 0.26205853 -2.4284246
000200 d1 94 09 c0 43 2e 3f c0 59 b6 3f 3e 03 81 52 bf
       -2.149708 -2.9871986 0.18721904 -0.82228106
000210 8c f2 0f 3f 8d e3 eb bf f6 7e d8 3e d4 1c cc 3e
       0.5622947 -1.8428818 0.42284364 0.39865744
000220 96 aa f3 bf 44 7f 11 c0 b5 cb 05 3f 32 f2 47 c0
       -1.9036434 -2.2733927 0.5226396 -3.1241574
000230 43 05 28 c0 44 87 a0 3e b3 4a 4e 3e 0f d1 a2 bd
       -2.6253211 0.313532 0.20145683 -0.07950031
000240 0b f1 0c 3f c0 f3 7a c0 c6 bf aa bf 9b 22 0f bf
       0.550553 -3.9211273 -1.3339775 -0.5591218
000250 05 f6 a8 3e 69 84 8a c0 0a 39 08 bf 26 c6 b5 3e
       0.33000198 -4.3286633 -0.53212035 0.35502738
000260 72 c9 87 c0 5c 5e 1b c0 c5 0b 20 3f 52 0b 8c 3f
       -4.2433405 -2.4276342 0.6251796 1.0940955
000270 23 9f e6 3e 23 6b f5 3e 4a 7a b7 be e5 1e 5e be
       0.45043287 0.479333 -0.35835487 -0.21691473
000280 c6 7c 72 c0 70 d7 54 c0 78 78 a5 3e 6c f0 4e be
       -3.7888656 -3.3256493 0.32318473 -0.20208901
000290 90 db 0a c0 2a 04 59 c0 76 c7 9d 3e ab e6 76 bf
       -2.169651 -3.3908792 0.3081624 -0.9644572
0002a0 52 a6 cc bf 70 2a 23 c0 ae f3 13 be 3f 07 a0 3e
       -1.5988257 -2.5494652 -0.14448425 0.31255528
0002b0 4a 53 11 c0 9c ff ab bf 3f 67 0e bf 0c 39 e4 3e
       -2.2707086 -1.3437381 -0.5562629 0.44574773
0002c0 9e 79 e8 bf c3 3b 25 3f 32 a6 3d c0 19 d5 ab be
       -1.8162115 0.64544314 -2.9632688 -0.33561018
0002d0 a0 68 88 bf e9 9b 03 c0 ea f2 61 c0 89 18 1b bf
       -1.0656929 -2.056391 -3.5304513 -0.6058431
0002e0 a6 72 14 3e 17 d7 78 3e ee 7d 0f 3f 0f 46 a6 3e
       0.1449686 0.243008 0.5605153 0.32475325
0002f0 48 84 5a be 39 93 2c c0 bd d8 32 3e 34 82 d7 3e
       -0.21339524 -2.6964858 0.17465492 0.42091525
000300 52 2e ae bd 85 26 a4 bf 0c 6c 5d be 86 51 31 c0
       -0.08504929 -1.2824255 -0.21623248 -2.7706008
000310 03 55 5b bf 3d 81 ff bf 80 b8 a5 3e 59 a7 ac 3d
       -0.8567659 -1.9961315 0.32367325 0.084303565
000320 e0 74 5f 3e db 1c 27 be 0b 90 cc 3e 18 ca 51 3e
       0.21821928 -0.16319601 0.39953646 0.20487249
000330 11 60 44 bc 93 9b 42 3e af 31 7b be 76 7b 57 3f
       -0.011985795 0.1900466 -0.24530672 0.8417276
000340 4a e8 fa 3e 43 7a 83 bc b7 b4 0d c0 af 79 84 bf
       0.49005347 -0.01604951 -2.214155 -1.0349635
000350 df 2c a4 3e fb 27 43 c0 2b 78 97 bf 0e 72 a5 c0
       0.32065484 -3.0493152 -1.1833547 -5.1701727
000360 d6 22 33 3d c6 1c 8d bf 11 70 76 3e 22 65 49 c0
       0.043734394 -1.1024406 0.24066187 -3.1467977
000370 15 a3 8e 3e b5 13 c5 3e 15 eb 82 be 12 ab ba bf
       0.27858797 0.38491598 -0.25569978 -1.4583457
000380 84 23 35 c0 72 fd 58 c0 8e 9e 04 be 10 e3 52 c0
       -2.8302927 -3.390469 -0.12951109 -3.2951088
000390 f6 e4 0f be 29 52 bf 3e e6 01 79 3e 94 e0 a6 3e
       -0.14052185 0.3736737 0.2431713 0.32593215
0003a0 a1 b0 91 bf dc d6 d9 3e 04 58 8f bf 2e 91 90 3e
       -1.1382028 0.42546737 -1.1198735 0.28235763
0003b0 96 69 e4 3e 6e c2 59 3e b0 5c ac bf 2c e1 5e 3e
       0.44611806 0.21265575 -1.3465786 0.21765584
0003c0 6b 8e 41 3e 57 1c da 3e 29 49 41 3f 29 33 cb 3b
       0.18901984 0.42599747 0.7550226 0.006201167
0003d0 a5 0a 46 bf 4b 75 2d 3e 88 4f 13 c0 61 72 4d bf
       -0.7735999 0.16939275 -2.3017292 -0.80252653
0003e0 fc a1 8c 3e 4b 65 9a 3f e3 d7 d3 3e de e5 c8 3a
       0.27467334 1.2062162 0.41375646 0.0015327295
0003f0 65 51 05 c0 1c 26 31 bf d9 4e c0 3d 70 a8 b9 3d
       -2.083093 -0.69198775 0.09390039 0.0906533

arith.constant1 f4 [64, 128]
000000 c4 66 99 bd 92 75 a5 3e d5 64 24 3e fe de f4 bc
       -0.07490304 0.32316262 0.1605409 -0.029891487
000010 77 96 09 be c3 81 ac be ae f3 e9 bc b8 20 55 3f
       -0.13436304 -0.3369275 -0.028558578 0.8325305
000020 7a 39 a7 3d 06 b2 b0 3e 58 08 0a be 76 89 9e 3d
       0.0816526 0.3451082 -0.13479745 0.07741062
000030 62 40 84 bd 78 a3 67 3c 68 08 00 3f cd e3 d6 bd
       -0.064575925 0.014138095 0.50012827 -0.10492668
000040 4c 37 27 3f 69 a5 00 be e9 46 15 3f 80 a8 9e 3f
       0.6531875 -0.12563099 0.58311325 1.2395172
000050 93 fa 06 3e 5f 75 cc be 75 10 ef 3d 0b ea b1 3b
       0.13181524 -0.39933297 0.11673061 0.0054295114
000060 43 d3 23 bd 7a 72 fe 3d fd 98 64 bd ad 8e 8e be
       -0.039996397 0.124241784 -0.055809963 -0.27843228
000070 37 2f a5 be 19 bc b0 bd 59 2f e7 3d f7 37 0e 3f
       -0.32262585 -0.08629627 0.11288328 0.55554146
000080 02 c9 64 3f 3a 59 84 bf 1b 05 5e 3f 34 f8 d0 bd
       0.89369214 -1.033973 0.8672654 -0.10203591
000090 b0 a9 9b bd bb 47 eb bd a3 7b fd be 00 d9 20 3e
       -0.07600725 -0.11488291 -0.4950839 0.15707779
0000a0 a8 36 5c 3d 30 57 91 bf 45 8d 64 c0 f1 ff 90 be
       0.05376306 -1.1354733 -3.5711224 -0.28320268
0000b0 8f cf 6f 3e cb 3a 16 3e 8a 0e e5 bf 5b 04 94 be
       0.23419021 0.14670865 -1.7895062 -0.28909573
0000c0 45 17 3c 3f f0 90 af bc a4 0b 17 bf 72 4b 48 3e
       0.73473006 -0.021431416 -0.5900214 0.1956003
0000d0 15 b6 2f 3f 4e 2d 2c 3f 9b 0e 12 3e 10 81 08 be
       0.6863721 0.6725663 0.14263384 -0.13330483
0000e0 14 7a ed 3c 03 d7 23 be 2c e6 05 c0 1e fd f0 3d
       0.028988875 -0.15999989 -2.0921736 0.11767028
0000f0 c0 ac a8 3d 97 9d f7 bf bd e1 a0 3c 61 92 21 bf
       0.082360744 -1.9344968 0.01963889 -0.6311398
000100 93 cb 1d be a8 8c 4c bd 52 55 81 bf ff 99 0b be
       -0.15409689 -0.049938828 -1.0104163 -0.13632964
000110 6e 1c 8d 3d e4 09 df bf 1e 3f e5 be 02 ae ae bd
       0.06890188 -1.7424893 -0.44774717 -0.08529283
000120 56 bb 3c 3f ce b2 9d bd 58 04 e1 3d c4 1c 2e 3f
       0.7372335 -0.0770012 0.10987157 0.6801264
000130 c8 e9 60 bd fa a3 1e be f0 bf c6 bb 7c ba 22 3d
       -0.05491045 -0.1549224 -0.006065361 0.039728627
000140 cd fe 39 3f 35 64 2b 3d 98 e3 00 3e 43 bc b9 3d
       0.7265442 0.04184361 0.1258682 0.09069111
000150 34 8f 1f 3e ae c2 17 3f b8 f3 b7 bd 7a e5 f4 be
       0.15581971 0.5928143 -0.089820325 -0.47831327
000160 05 88 88 3e 2d c5 2a bd 25 76 91 3e 3f be 19 3d
       0.26666275 -0.041691948 0.2841045 0.03753495
000170 e7 50 89 3e ee 94 12 bd b7 2e 99 3e dc ec a6 bd
       0.26819536 -0.03578656 0.29918453 -0.08150646
000180 68 9b 1f 3e 8e 98 9b 3d c8 80 c3 3d e5 33 25 bf
       0.15586627 0.07597457 0.095460474 -0.6453231
000190 11 94 2c 3f 84 5f 3a 3f 52 31 9c 3d ee db 32 3e
       0.6741343 0.72801995 0.076265946 0.17466709
0001a0 7d 2f 5b bf c8 9f d2 3e ee 45 6b bf 0a c8 33 be
       -0.85619336 0.41137528 -0.9190358 -0.17556778
0001b0 a9 70 2b bd f6 c7 17 be e3 e7 12 3f 35 bb a5 3e
       -0.041855488 -0.14822373 0.5738508 0.3236939
0001c0 f7 e7 c2 3d 12 32 7d 3f 60 4d 36 bf 09 60 88 bd
       0.095169 0.98904526 -0.71211815 -0.06658942
0001d0 61 a8 22 be 3c 3f 22 bd a5 5d 29 3e c5 63 25 bc
       -0.15884544 -0.039611086 0.16539629 -0.010094588
0001e0 5d 24 f8 be d3 90 e1 bc d1 ad 59 3f 14 46 21 be
       -0.48465243 -0.027534878 0.8503085 -0.15749389
0001f0 b9 92 07 bf 1c b8 9e 3e 42 cc 71 bd 6d dc 18 be
       -0.52958256 0.3099984 -0.059032686 -0.14927836
000200 e8 7b 22 bd c6 1c 1d bf 63 ca dd 3d 7a a9 67 bf
       -0.039668947 -0.6137203 0.10829618 -0.90492976
000210 67 dc e8 3d d5 29 0e 3e 4a 3b dc bf e2 dc 1e be
       0.113701634 0.13883145 -1.7205594 -0.15513948
000220 a0 77 9d bc b6 d9 80 bf d0 2a 2e 3c 42 5f 0d 3f
       -0.01922208 -1.006644 0.0106303245 0.55223477
000230 d4 4b 3a be 41 25 30 bc 19 64 ad be 74 00 19 bd
       -0.18192989 -0.0107510695 -0.3386543 -0.037353948
000240 6c 5d 06 3f 1e 45 97 be 59 ac 03 3f c2 2b 9a be
       0.524863 -0.2954492 0.51434857 -0.3011151
000250 2c d3 b7 be e3 35 00 bf 5e e5 89 bd 75 19 36 be
       -0.359033 -0.50082225 -0.067332014 -0.17783149
000260 17 87 9a 3d 98 f1 b4 3c 98 b0 c4 bc 79 26 f6 3d
       0.075452976 0.022087857 -0.024009988 0.12019057
000270 37 67 4d be 85 7b 9b bf e4 fe 63 bd 16 d4 24 be
       -0.20058905 -1.214707 -0.055663005 -0.1609653
000280 33 0b 90 3f f5 b8 93 be 77 cf 0a 3f 76 2c b5 3c
       1.1253418 -0.2885205 0.54222816 0.022115927
000290 48 16 1a be 52 e9 02 bd b8 0b 91 be 44 88 23 3e
       -0.15047562 -0.031960793 -0.28329253 0.1596995
0002a0 3e ce bb bd 5b 5f 6b be 56 64 cf be e3 b4 d6 bc
       -0.09170197 -0.22985594 -0.40506238 -0.0262093
0002b0 01 92 79 3e 1e 76 63 3c c7 1a 97 bd ee d7 68 3d
       0.24372102 0.013883142 -0.07378154 0.05684655
0002c0 03 f8 be bc 09 2d 86 3f 9a c3 90 bc 08 16 04 3e
       -0.02331162 1.0482494 -0.017671395 0.12899029
0002d0 38 31 51 3f 64 9c f9 be b5 87 4c 3c 51 d4 01 3e
       0.81715727 -0.4875213 0.012483527 0.12678649
0002e0 7e 92 4d 3e 94 38 54 3f 79 e4 ce bd 00 83 5d bd
       0.20075414 0.8289883 -0.101021715 -0.05408001
0002f0 c9 0b 2e 3f fd a3 0b be 6a 16 96 bd 0d 47 30 3f
       0.6798673 -0.13636775 -0.07328494 0.68858415
000300 2e 86 bd be d0 ff 6e 3c 1a ce f9 bf 62 cb 10 3e
       -0.37016433 0.014587358 -1.9516022 0.14140084
000310 fd e8 a7 bd b7 26 11 bc b9 8a 27 bf b0 e1 fa bd
       -0.08198736 -0.008859328 -0.6544605 -0.12250078
000320 51 e6 d3 3d 77 f8 22 be 36 5f 8f be 0c 85 27 bd
       0.10346664 -0.15915094 -0.28002328 -0.040898368
000330 bb 22 7d 3e 93 c3 f7 be f1 d0 05 be 18 4e 8f 3d
       0.2472028 -0.483914 -0.13067986 0.06997317
000340 29 5e b6 3d 94 14 f9 3e 90 69 ec be 52 b8 94 3e
       0.089046784 0.48648512 -0.46174288 0.29046875
000350 3c 28 8b 3b 38 29 82 3e 92 c3 91 3d 22 35 9c 3c
       0.0042467397 0.25422072 0.0711738 0.019068304
000360 1d b5 9c be 18 a2 bb bd d5 50 89 3e 28 82 7e 3f
       -0.30606928 -0.09161776 0.26819482 0.9941735
000370 e6 d3 a8 bf e0 7c 5a 3c 3c 14 b4 3e 4d ad ed 3e
       -1.3189666 0.013335437 0.35171688 0.4642128
000380 49 a3 8f be 7b f6 2f 3e 7d 0a 04 3e d3 4b 83 3e
       -0.28054264 0.17183869 0.12894626 0.25643787
000390 4e 10 95 3f 84 c0 49 bf 42 28 b2 3f 58 b2 2b bd
       1.1645601 -0.7880938 1.3918536 -0.04191813
0003a0 97 30 cb bd f7 17 4c 3e 91 9c e7 be 88 be de 3d
       -0.09921377 0.19931017 -0.45236638 0.10876185
0003b0 2c d8 02 3e 74 5c 52 3d 57 15 32 3f 7f 75 b2 3d
       0.12777776 0.0513577 0.6956381 0.08713817
0003c0 b8 d0 de bd 71 e2 b2 be 16 67 95 3d 70 0e 91 3d
       -0.10879654 -0.34938386 0.07295053 0.07082832
0003d0 be 51 e2 3d e8 83 83 3f 0f 88 9a bd 85 ab 32 3e
       0.11050747 1.027463 -0.07545482 0.17448242
0003e0 f5 2b ed be a7 a9 54 bc fb 0e 07 bf c6 3a 80 3d
       -0.463226 -0.012979901 -0.52757233 0.0626121
0003f0 22 58 d2 3e 8d 86 0f be 9a 14 27 be 94 f8 46 bb
       0.41082865 -0.14016171 -0.16316453 -0.0030360566

ASL_Recognition_Model_1/dense_1_1/BiasAdd/ReadVariableOp f4 [128]
000000 00 00 00 00 d6 43 bc bd e2 64 72 bc 2f 65 15 be
       0.0 -0.09192626 -0.01479456 -0.1458938
000010 e6 f1 fb bb 6e 29 7a 3f c2 11 92 3e 1f 71 bf bc
       -0.0076887487 0.97719467 0.28529173 -0.02336937
000020 00 00 00 00 ba 07 95 bd 00 00 00 00 0e 2c 7f be
       0.0 -0.07276864 0.0 -0.2491915
000030 f5 5a 92 be 45 b2 e5 bd 50 17 ec bc 00 00 00 00
       -0.2858502 -0.11215643 -0.02881971 0.0
000040 24 78 ec be 72 08 07 be 6b b6 e3 bd 4a 9d bd 3c
       -0.4618541 -0.13186815 -0.11118778 0.02314629
000050 a5 5e 84 be 3e 55 ac 3a 49 d5 47 be 3b 1a da bc
       -0.25853458 0.0013147963 -0.19514956 -0.026623836
000060 e1 bf 87 bd 00 00 00 00 55 9b 4f bc ba fe 60 3e
       -0.06628395 0.0 -0.012671311 0.2197217
000070 31 c0 04 be 34 03 9e 3d 05 bb af bb 85 9e 86 bd
       -0.1296394 0.07715455 -0.0053628706 -0.06573204
000080 2d 05 98 bd 86 39 70 be 98 9e f1 3d 90 45 98 be
       -0.07422862 -0.23459443 0.117978275 -0.29740572
000090 00 00 00 00 25 2c af bc 44 39 f7 bd c1 24 57 bc
       0.0 -0.021383354 -0.120714694 -0.013131321
0000a0 6e aa b3 bc 16 ae db bd c8 87 ea 3d f3 a5 e1 3d
       -0.021931853 -0.10726564 0.114516795 0.110179804
0000b0 4e a5 4c be 93 1e e7 bc b3 a8 89 bd 71 9a c9 bd
       -0.19984934 -0.028212821 -0.0672163 -0.098439105
0000c0 b0 6d 6c be 35 ba 13 be a2 09 35 bd 30 03 fc bd
       -0.23088717 -0.14426501 -0.04419864 -0.123052955
0000d0 68 ed 60 3d 36 bc 89 3e 95 c8 21 bc 00 00 00 00
       0.05491391 0.26901406 -0.009874483 0.0
0000e0 cf 41 55 be e8 b2 86 be b9 9c 0d 3d 00 00 00 00
       -0.20825885 -0.2630837 0.03457329 0.0
0000f0 d8 fc 5d be ff c4 4c bc 98 d6 64 bc 7e e2 c8 bd
       -0.21678483 -0.012498139 -0.013967179 -0.09808825
000100 6b cf 25 be 00 00 00 00 5d 2e 00 be c9 4e 53 bd
       -0.16192405 0.0 -0.12517686 -0.051588807
000110 b9 c6 c2 bd d1 7f ba bd ea b2 d2 bd 00 00 00 00
       -0.095105596 -0.0910641 -0.102880314 0.0
000120 b5 1d 38 bd ee a6 86 bc ce 01 eb 3c 83 99 ce bd
       -0.044950206 -0.01643702 0.028687384 -0.10087874
000130 3d a5 26 be 02 bb f0 3c e5 6d cb bc 00 00 00 00
       -0.16273971 0.029386047 -0.024832675 0.0
000140 ff 1d 40 be e5 64 50 be ff 49 6e 39 80 fd 41 be
       -0.18761443 -0.20350988 0.00022725014 -0.18944359
000150 ae 3f 6a bc de 04 3e bd 00 00 00 00 5b 24 8c be
       -0.014297409 -0.04639136 0.0 -0.27371487
000160 57 4f 1f be f4 e7 9e bc 04 86 2c be 26 8f 04 be
       -0.1555761 -0.019397713 -0.16847998 -0.12945232
000170 b0 5d ef bd 64 f1 85 bc 10 7c b8 bd 2d 36 80 bd
       -0.11687791 -0.016350456 -0.09008038 -0.06260333
000180 19 47 8d 3d 00 00 00 00 bd f0 51 be 1c aa c5 bd
       0.068983264 0.0 -0.2050199 -0.096515864
000190 c0 9c 2d 3b 12 13 26 be ce 04 02 be 71 bf 53 bc
       0.0026491135 -0.16218212 -0.12697145 -0.012924061
0001a0 ab 9b d4 bb 19 b1 29 be cd 2a b4 bd fa 18 05 be
       -0.0064882836 -0.16571464 -0.08797226 -0.12997809
0001b0 04 12 97 bd e1 f3 9e bc bf fc d7 bd d2 ee 0e be
       -0.07376483 -0.0194034 -0.10546254 -0.1395829
0001c0 7b b3 89 bc 07 e1 a6 3d 91 ab b2 be 58 08 87 bc
       -0.016809216 0.08148389 -0.3489652 -0.01648347
0001d0 00 00 00 00 a9 cd 1a be 00 00 00 00 48 e1 ae bd
       0.0 -0.15117516 0.0 -0.08539063
0001e0 53 4b c0 3d 6b 8b 28 bc 72 1e 4f 3d 5f 41 48 bb
       0.09389367 -0.010287146 0.050566144 -0.0030556542
0001f0 76 1d c7 bd e3 c8 72 bd 00 00 00 00 68 0b a7 bc
       -0.09722416 -0.05927361 0.0 -0.020391181

ASL_Recognition_Model_1/dense_2_1/BiasAdd/ReadVariableOp f4 [64]
000000 80 43 2e bd a9 1b 0a bd e6 4d 98 be d3 04 9e 3e
       -0.04254484 -0.033717785 -0.29746932 0.30863056
000010 8e 16 7e bd d7 c9 b9 be 4a 12 45 3e 75 16 00 3e
       -0.06203323 -0.36286804 0.19245258 0.12508567
000020 c1 f2 53 bd 77 e5 01 3f 54 f4 81 3e 24 df 4a 3e
       -0.05174518 0.5074076 0.2538172 0.19811684
000030 8a d2 0a 3e 5a 54 45 bc d7 5a 40 be 41 6d 02 3e
       0.13556877 -0.012044037 -0.18784653 0.1273699
000040 be cc 50 3e 78 49 37 be d9 a8 3c 3e 60 eb fc bc
       0.20390603 -0.1789912 0.18423785 -0.030873954
000050 18 89 4e 3e a0 9a 3d be 79 2c 02 3e fe b8 b4 3d
       0.20169485 -0.18516016 0.12712277 0.08824347
000060 bc f3 f9 bd e1 d5 7b be 8e 21 c8 3e 89 7e 7b 3e
       -0.12204692 -0.24593307 0.390881 0.24559988
000070 a7 19 f8 3c 10 02 8a 3d d2 f8 8b be fc de 08 3d
       0.03028567 0.06738675 -0.27338272 0.03341578
000080 b0 0d 97 bd e8 10 1a 3d 15 9f 25 3d 2c 03 31 bd
       -0.073756576 0.03761378 0.040434916 -0.043215916
000090 a9 42 a1 3e 90 ce 2b be a3 81 a6 3e b9 55 a7 3e
       0.3149617 -0.16778016 0.3252078 0.3268259
0000a0 41 24 6f 3d 39 9a d4 bd 14 ec d6 3d 61 c3 3b 3e
       0.058384184 -0.10380978 0.10494247 0.1833625
0000b0 97 5b 56 3e 53 f2 c1 3b 0a 18 0a be 75 7b d6 bc
       0.20933376 0.00591878 -0.13485733 -0.026181916
0000c0 51 8f ae bd 40 4c d0 bd b5 63 05 3d 06 2b 71 bd
       -0.08523429 -0.101707935 0.03256579 -0.05887892
0000d0 aa de ca be 00 99 5a bc fc f9 ce 3e 6b 72 0b 3c
       -0.39623004 -0.013342142 0.40425098 0.008511166
0000e0 c9 96 cf 3e 58 a9 8e 3e b1 11 a7 3e 29 d4 d7 ba
       0.40544727 0.27863574 0.32630685 -0.0016466427
0000f0 ef 7e 7e 3e 1c 1c 85 3e b3 cb 1e be 2d 91 12 3e
       0.24853109 0.25998008 -0.15507393 0.14313193

ASL_Recognition_Model_1/output_1/BiasAdd/ReadVariableOp f4 [24]
000000 21 d3 e9 be e7 07 e5 3f a7 31 3e 3e 27 59 6b be
       -0.4566889 1.7893037 0.18573628 -0.22983228
000010 bd 38 d6 be 76 2d 25 bf 69 ce 97 bf 90 f1 ca 3e
       -0.41840163 -0.6452249 -1.1859866 0.39637423
000020 7d 15 66 bd 2d 36 65 bd a8 43 6e bf af 76 6a 3f
       -0.056172837 -0.05595987 -0.93071985 0.91587347
000030 fe 81 f3 3e ed 18 c8 3f 3c c8 71 bf d9 7a 06 be
       0.47560114 1.5632607 -0.9444616 -0.131328
000040 a0 e1 ab 3d 60 c6 1e 3f 93 c6 b8 bf f5 46 c5 3e
       0.08392644 0.62021446 -1.44356 0.38530698
000050 34 29 29 be 6b b4 26 bf c6 69 68 be 6c 92 ac bf
       -0.16519624 -0.65119046 -0.226966 -1.3482184

ASL_Recognition_Model_1/dense_1_1/MatMul f4 [128, 63]
000000 a7 fb 11 be 35 f8 04 be 00 8c 30 3b a0 16 df bc
       -0.14256154 -0.12985308 0.0026938915 -0.027232468
000010 ca 61 92 bd f8 ee bf 3d 04 35 f4 3d 7a 97 f3 bd
       -0.07147558 0.093717515 0.119241744 -0.11894126
000020 82 17 f4 bd 15 06 e0 bd 70 1b 27 3c f7 3e 30 be
       -0.11918546 -0.1093866 0.010199413 -0.17211519
000030 ce c1 58 bd c0 d3 0f bc 68 a2 97 3c b0 d4 fe 3d
       -0.0529192 -0.0087785125 0.018510059 0.12442911
000040 7c cc b4 3d d8 1a 79 3d 28 ce aa 3d a6 23 8a bd
       0.08828065 0.060816616 0.083401024 -0.06745081
000050 12 58 23 3e 90 8e b9 3d 68 23 ef bd 9c 0a 3c bd
       0.15951565 0.09060395 -0.11676675 -0.045908555
000060 65 a3 85 bd 34 7e 1b bd 90 61 c6 3d a0 0b cf 3c
       -0.06525306 -0.037962154 0.09686577 0.025274098
000070 a0 e2 99 3c 3c cb a0 bd 26 65 bd bd d0 83 ab 3c
       0.018784821 -0.07851264 -0.09247808 0.020936877
000080 f8 13 9e 3d 44 4f f7 3d 94 de a1 3d 02 23 13 3e
       0.077186525 0.120756656 0.079037815 0.14368823
000090 d0 62 ff bc 1e 4e 30 3e e6 2c 1d 3e 38 d2 e3 bc
       -0.031175047 0.172173 0.15349159 -0.027810201
0000a0 70 9c 54 3c b2 6e 6b bd 28 e7 58 bd 3e 6a 1f be
       0.012976751 -0.057478614 -0.052954823 -0.15567872
0000b0 80 dc c7 3c c8 52 95 bc 00 30 6e bc 40 7c 92 bb
       0.024397135 -0.01822795 -0.014537811 -0.004470378
0000c0 98 1a 44 bd 08 50 95 3c 00 49 0b bb 1a 27 d6 bd
       -0.047876924 0.018226638 -0.0021253228 -0.10456677
0000d0 90 1c c7 3d b2 51 22 3e f8 4b 81 3c da 9b 28 be
       0.09722245 0.15851477 0.015783295 -0.16465703
0000e0 38 88 c6 bc 0c 15 77 bd 85 ec b7 bd d0 bc 4d bc
       -0.024234876 -0.060322806 -0.089806594 -0.012557223
0000f0 95 d6 2c be 06 f9 16 be 25 83 0e be 01 e9 ea 3d
       -0.16878732 -0.14743432 -0.13917215 0.11470223
000100 84 f8 32 be e3 35 ca 3f a4 9c 1f be 4e d9 10 be
       -0.17477614 1.5797695 -0.15587097 -0.14145395
000110 ea 4e ad 3d ef e8 95 be f8 de 78 be c2 20 dc 3c
       0.08462317 -0.29279277 -0.24303806 0.026871089
000120 95 d3 9e be d8 70 b8 3e 05 8f 0c 3e 54 28 e0 3d
       -0.310208 0.36023593 0.13726433 0.10945192
000130 05 82 5f 3f 95 ae df 3c 8f 34 26 be 0c 99 18 3e
       0.8730777 0.027304927 -0.16230987 0.14902133
000140 3b 1f 9b be 46 4e 8f 3e 92 e6 ed 3d eb a7 98 bd
       -0.30297264 0.27989405 0.116162434 -0.07453903
000150 71 d6 40 3f db fb a4 3e 86 3b 06 3f cb eb a3 3f
       0.7532721 0.322234 0.52434576 1.2806333
000160 59 dc 68 3e 1b 26 54 3f ee b3 a0 be f7 9e 86 3d
       0.22740306 0.82870644 -0.31387275 0.06573289
000170 0c ab aa be f3 fb 89 be a9 0a 81 bb ff be 3d 3e
       -0.33333623 -0.26950034 -0.0039380384 0.1852989
000180 88 99 ce be 03 1f 17 bf da 09 b9 3d 94 e6 cb be
       -0.4035151 -0.59031695 0.09035082 -0.39824355
000190 a6 ee 76 bf 87 c2 2f 3d 4e ae 84 bd 0d 4d 63 bd
       -0.964579 0.042910125 -0.064785585 -0.055493403
0001a0 d3 99 f6 bd 1b e3 47 be d6 9f 88 3e ba ac 35 3e
       -0.120410584 -0.19520228 0.26684445 0.17741671
0001b0 ef f1 fd 3d 84 28 43 be 40 77 f1 be 70 bf 78 3d
       0.12399661 -0.19058424 -0.47161293 0.060729444
0001c0 64 b6 d7 be 90 fe a4 bf e3 f3 6e 3c f9 5a 8e bd
       -0.4213134 -1.2890186 0.014584514 -0.069509454
0001d0 4f a1 89 bd 2e 90 ff bc b6 e2 70 3e af c6 19 3f
       -0.0672022 -0.03119668 0.23523983 0.6006879
0001e0 c4 35 18 be f0 a2 52 3e d3 45 73 3e cd 08 6c bd
       -0.1486426 0.20569968 0.23757105 -0.05762558
0001f0 7b 6f ca 3c 82 fe 57 be 03 50 81 3d b1 1d 2d be
       0.024711361 -0.21093181 0.06314089 -0.16905858
000200 75 24 dd 3d b8 1c 0a bd 73 df 7f 3d 8f 34 89 bd
       0.10797969 -0.033718795 0.062468957 -0.06699478
000210 07 5b 99 bd f0 22 17 be 79 72 3f 3d bb d7 06 be
       -0.07488065 -0.14759421 0.04674003 -0.13168232
000220 97 32 e9 3c 1d b7 01 bc 06 f7 05 be 27 bf f1 bd
       0.028466506 -0.007917193 -0.13082513 -0.118040375
000230 9f 31 e4 3d 02 48 f6 3c 53 c4 35 be 8b b7 b7 3d
       0.11142277 0.030063633 -0.17750673 0.08970555
000240 77 0b 04 3e ad 32 0a 3b 41 ee c8 bd f1 a4 0e 3e
       0.12894998 0.0021087334 -0.09811068 0.13930108
000250 8d 7a 3b be 43 ed 80 3c d1 1f 03 3e 06 3c 31 3e
       -0.18308468 0.015738135 0.12805106 0.17308053
000260 30 30 65 3d 60 bb 20 3e 69 54 93 bc ad ee 4a 3e
       0.05595416 0.15696478 -0.017984586 0.1981761
000270 53 72 c9 bd 26 cb 33 be 1f b1 d4 3d 0a 9a 06 be
       -0.09836259 -0.17557964 0.10385346 -0.13144699
000280 1a 0d c8 bd cb ca 21 3e de bd 78 3d 44 7d ae 3d
       -0.09768124 0.15800016 0.060727946 0.08519986
000290 a1 6b 3b bd c2 ca b5 3d 26 b0 49 be f3 a9 19 3e
       -0.04575694 0.088765636 -0.19696102 0.15006237
0002a0 24 f6 4d bc d3 b1 a2 3d 66 db c4 bd ff 5d cb 3d
       -0.0125708915 0.079440735 -0.096121594 0.09930038
0002b0 ba c2 a5 bc 48 36 11 be 46 96 4a be 12 bb 3b be
       -0.020234454 -0.14180863 -0.19783887 -0.1833308
0002c0 fe 35 5c bd ac 30 d1 3d cb 89 c7 bd 0f ef 97 bc
       -0.05376243 0.102143615 -0.09743079 -0.01854661
0002d0 fe 6e fd bd 83 f7 08 3c cc 49 4b bc af 69 2c be
       -0.12374686 0.008359793 -0.012407731 -0.1683719
0002e0 84 c9 1f 3d 4c 82 a7 bd 99 0c 19 be 75 19 ba bb
       0.03901054 -0.08179149 -0.14946212 -0.0056793042
0002f0 79 42 a4 bb 0e ad 1e 3f 23 15 e6 bd 02 e7 15 bf
       -0.005012807 0.6198281 -0.112345 -0.58555615
000300 76 5b a0 3c a1 d2 91 bd 75 a1 25 bf c2 9b dd 3c
       0.019574862 -0.071202524 -0.6469949 0.02705181
000310 46 da 85 bc 13 8d c3 be 66 19 bf 3e 86 87 e3 3e
       -0.016339432 -0.3819357 0.37324065 0.44439334
000320 d9 4b 73 be d8 af 70 3f 29 34 a2 3e 60 fb 42 be
       -0.23759402 0.94018316 0.3168042 -0.19041204
000330 49 70 c6 bd dd 1f 60 bf 25 75 1f be b8 ec 6b be
       -0.096893854 -0.8754862 -0.15572031 -0.2303952
000340 52 a3 74 be fb b5 be 3c a9 da bc be c3 0b ab bd
       -0.23890427 0.023280134 -0.36885574 -0.08351853
000350 db 71 47 be 8a 97 1b bf a1 3e 29 be 72 1e 9a be
       -0.19477026 -0.60778105 -0.16527797 -0.30101353
000360 90 09 5b 3e 40 aa 37 bf fe d5 09 3e 4e f6 3b be
       0.21390367 -0.71744156 0.13460538 -0.18355677
000370 b4 5b 42 3e 4a d9 95 be bd 61 f3 be bf 43 a2 3e
       0.18980294 -0.2926734 -0.47535506 0.3169231
000380 8f 90 a7 bd bd 34 1e bf 89 25 1c 3f 26 b1 bd 3c
       -0.08181869 -0.6179922 0.60994774 0.02315576
000390 94 d0 6d 3e 23 8e 39 bf 51 2e ae 3e 97 c6 ff bd
       0.23224097 -0.7248251 0.34019712 -0.1248905
0003a0 b5 37 b9 3e a0 8b a9 3e d6 31 07 3e fd 17 69 3e
       0.36175314 0.33114338 0.13202605 0.22763057
0003b0 d0 d7 b6 3e 60 89 cd 3d 19 6e 24 3e 86 b1 5c 3f
       0.35711527 0.10035968 0.16057624 0.8620838
0003c0 74 23 9f 3e b5 99 36 be ca 69 cb 3e 22 a6 51 3e
       0.31081736 -0.17832072 0.39729148 0.20473531
0003d0 0b 33 e2 3e c5 06 95 3e 12 f4 42 be ef dd 0a 3e
       0.44179568 0.29106727 -0.19038418 0.13561223
0003e0 81 95 76 bd d4 32 16 bc db 54 45 bc 4e 88 93 3e
       -0.06020117 -0.009167392 -0.012044157 0.2881493
0003f0 a8 d4 24 be 3b eb 82 bd be fe 66 3d 7b 6a 95 bd
       -0.16096747 -0.06392523 0.056395285 -0.072957
